AI/model.tflite (tflite, 316384 bytes, 7 tensors)

sequential/dense/BiasAdd/ReadVariableOp f4 [32]
00000000: 4bca 3fbc c894 ee3b c41a 46bc 0000 0000
00000010: 79e6 d23a a9f9 b3bb 2c75 213c 53e2 aebb
00000020: e1f4 5cb3 23db 5f3c c859 913b a540 663c
00000030: 0000 0000 0bd7 1a3c 1682 733b 3c87 5b3b
00000040: 80e5 573a 8157 9f3c 4c51 c03a 581d 91bb
00000050: f931 2fbc 2bbb 2f3c 69fb 2d3c 5c85 3dbc
00000060: 5fc2 c4bb f334 46bc 5a05 cf3b 44a9 e53b
00000070: ade7 18bc cbe1 173c 5445 8b3c 7b03 f2bb
-0.011705945 0.0072809197 -0.012091342 0.0 0.0016090415 -0.0054924083 0.009854596 -0.0053370385
-5.1445458e-08 0.013663086 0.0044357516 0.014053498 0.0 0.009450684 0.0037156395 0.0033497354
0.0008235797 0.019450905 0.0014672666 -0.004428547 -0.010693067 0.010725777 0.010619023 -0.01156744
-0.006004616 -0.012097585 0.0063177766 0.0070087034 -0.00933258 0.009270142 0.017000832 -0.007385669

sequential/dense_1/BiasAdd/ReadVariableOp f4 [3]
00000000: 5449 3cbc 1baf 12bc 0be2 a43c
-0.011492092 -0.008952881 0.020127317

sequential/dense/MatMul f4 [32, 64]
00000000: 87c7 413e e027 19be c6d1 e33d 3047 4e3d
00000010: c912 64be 1089 ce3d 30db 93bd 2fde 503e
00000020: 5df2 e13c d7b1 34be 5acb 733d 7538 7dbc
00000030: bba0 a13d 6ce5 df3d c9ca 19be 0adf 65be
00000040: 6a2e 13be 6deb 5dbe 9ecc 4fbe f91d 4abe
00000050: 2797 4b3e 7e63 bcbd e426 433d 4157 043e
00000060: 2523 10bd 5dd0 353e c05a fe3d e277 bbbd
00000070: d516 fc3d 8aba b4bd 793f 7dbe 49a8 b83d
00000080: a099 7f3e 46b2 36be 8f83 c03d 3757 883d
00000090: 4807 56be b8c6 673e fb16 f13d cfca 57bc
000000a0: ca60 c03c 98b4 7dbe 183e 19bd bb80 5fbc
000000b0: 5034 7fbe 3d79 81bc 0742 7c3b 2115 edbd
000000c0: 4e69 82be 1411 ef3c 7e34 7a3c 7814 a53c
000000d0: 13b2 e83d 9039 0b3e 0bb7 623e 9598 48be
000000e0: ef20 303e a0ab 093e e0a6 6ebe 7764 2b3e
000000f0: 8395 38be 7ffe 58bb a4db 0b3c b433 6b3e
00000100: 92c4 71be e08b 0fbd 4132 f63c 2112 323e
00000110: 75d4 073c 8bbe 333e 4ec3 cdbd 58b0 0d3e
00000120: f886 143e 520d c13d 6c75 f3bd 6db2 c5bc
00000130: 7f66 463d 0dde 5f3e 5d6e d5bc 42d4 6b3e
00000140: 3170 c2bd 138e 7bbe 9cad 73bd fa7a fc3d
00000150: f93b 60be 0710 33bd d49d 603e d035 59bd
00000160: 4390 143d 4367 32be 1e75 413e 1bbd 4cbe
00000170: 5481 23bd 5f0b 5e3d b927 093e ee9a 44be
00000180: 9c07 953d 763c 51be dc2b 0ebe e3de de3c
00000190: 95a9 873d 0181 0ebe 9c0a 08be 2be4 0ebe
000001a0: 72d8 c6bd 7918 25bd 893f 0f3e 6af9 70be
000001b0: 112d 1f3e 358a 5dbe d8d6 45be af9c 663e
000001c0: 99e1 b9bd c154 243e fc7e 4b3e 1657 1e3d
000001d0: 1328 253d 10f4 26be 7729 533e af05 f7bd
000001e0: fe16 013d 8165 27bd ca9c 0dbe 6bc7 3b3d
000001f0: 4984 513e 0bc9 41be 6fa7 b13d 0b18 46be
00000200: f3e3 e13d c88c b2bd 4daa 273d 708f 4ebd
00000210: 5495 6ebe 73ce 72bd abed 62be 7d3e 2d3d
00000220: c8bb 0bbe e453 1cbe e031 2d3e f7d1 40be
00000230: c73c 1d3e 8a4e 54be d29a 41bd 1bbd 3dbe
00000240: f0eb d93d ede5 73be 784a 8b3b c19f c7bd
00000250: c4b4 20bd 78f2 253e 53b3 ffbc 130c 73be
00000260: a3d2 2bbe 21d7 763e 304f 163e e004 00bd
00000270: f382 8cbd e44f f13d ca7e 6cbe f8e7 d73d
00000280: 8d25 06be 81b6 42be 404d 40be a1f4 d63d
00000290: 5568 ac3d 352f 4fbe 9791 5d3e 3797 263e
000002a0: 3097 83bd ffed 4abc b837 81be 8af4 58be
000002b0: 112e e43d d7ec 24be 9240 a13a a68e 6e3e
000002c0: 3732 3a3d a285 103e 40cb d13d 3b7e 83be
000002d0: 9e4d 4abe 7ca5 7d3e 613b 603e 1078 55be
000002e0: 60ba c2bc 8dfe c3bd 7fb0 1ebe 2dd6 d33d
000002f0: 4795 993d 0a64 023d 1346 2e3e 977b 803e
00000300: d023 72be ccec 51be 78e9 1bbe 40cb 223e
00000310: 2067 79be 486c 7c3e a0f0 62bd d07a f63d
00000320: 101f 023e 0446 3dbe e802 babd 00c7 1fbb
00000330: c01a 6cbc 28be b53d b423 0c3e cc58 683e
00000340: 901e b53d 501e 25be 08f9 7e3e 806f 60bd
00000350: 10e0 1bbd 6417 35be e044 ebbc 0045 d4bb
00000360: b4a2 33be 6023 803d b0ee 3ebe c0cb 413c
00000370: 2cb1 543e c063 4fbe 7ca9 21be 6c52 7bbe
00000380: 68fa bebd a854 453e 280c 7dbe 60a8 c7bd
00000390: 7815 f73d 9cdc 7bbe d8fe f3bd 48a6 85bd
000003a0: 2c09 17be 20a2 06bd a05f dbbd 741d 2ebe
000003b0: 0494 5bbe e4b1 753e 20de b3bc c014 f7bc
000003c0: f4f0 233e 88b2 923d bcd2 02be 2453 74be
000003d0: 38d3 21be c0d3 25bd 3095 f1bd f4da 23be
000003e0: 28e0 9fbd 00a8 583b 60b5 00bd 40c5 a8bd
000003f0: 644e 353e 1046 163d 00c2 523c 10eb c7bd
0.1892377 -0.14956617 0.111239955 0.05036086 -0.22272791 0.10084736 -0.07219541 0.20397256
0.027581388 -0.17645966 0.059520103 -0.015455355 0.07891985 0.109324306 -0.15018763 -0.22448364
-0.14373174 -0.21671839 -0.20292899 -0.19737996 0.19881879 -0.09198664 0.04764451 0.1292391
-0.035189766 0.17755266 0.12419653 -0.09153725 0.12309042 -0.08824642 -0.24731244 0.09016473
0.24960947 -0.17841443 0.09400093 0.0665726 -0.20901215 0.22634399 0.11771961 -0.013170912
0.023483653 -0.24775922 -0.037412733 -0.013641532 -0.249223 -0.015804881 0.0038491504 -0.11576296
-0.25470966 0.029182948 0.015271304 0.020151362 0.1136209 0.13596177 0.22140138 -0.19589455
0.17200063 0.13444376 -0.23305845 0.16737543 -0.18025784 -0.0033110676 0.008536253 0.22968942
-0.23610142 -0.035045505 0.03005326 0.17389728 0.0082904 0.17553155 -0.10047017 0.13836801
0.14504611 0.09426369 -0.11887631 -0.024132932 0.04843759 0.2186205 -0.026053602 0.23030189
-0.09494055 -0.24565916 -0.05949174 0.123281434 -0.21897878 -0.043716457 0.21935207 -0.053029835
0.03627039 -0.17422204 0.18892333 -0.19994013 -0.03991826 0.054210063 0.13394059 -0.19199726
0.07276842 -0.2043322 -0.13883919 0.02720589 0.06624142 -0.13916399 -0.13285297 -0.13954227
-0.097092524 -0.040306542 0.1398908 -0.23532644 0.15544535 -0.21634753 -0.19320238 0.22520708
-0.090762325 0.16047956 0.1987266 0.03865727 0.04032142 -0.1630404 0.20621286 -0.12061631
0.031516068 -0.040868286 -0.13829342 0.045844477 0.20460619 -0.18924348 0.086745135 -0.19345109
0.11029806 -0.08718258 0.040933896 -0.05042976 -0.23299152 -0.059278917 -0.22160976 0.04229592
-0.13645852 -0.15266377 0.16913557 -0.18830095 0.15355216 -0.20733085 -0.04726679 -0.1852917
0.10640705 -0.23818178 0.0042508207 -0.097472675 -0.03923489 0.16205776 -0.031213438 -0.23735075
-0.1677957 0.24105503 0.14678645 -0.03125465 -0.06860914 0.11782816 -0.23095241 0.105422914
-0.13100262 -0.19014932 -0.18779469 0.10495878 0.08418337 -0.20232852 0.2163757 0.16268621
-0.06425321 -0.012385844 -0.25237823 -0.21187034 0.11141599 -0.16105972 0.0012302569 0.23296604
0.045458045 0.14113477 0.10243845 -0.25682244 -0.19756171 0.24770159 0.21897651 -0.20846581
-0.023770511 -0.09570036 -0.15497015 0.10343585 0.074991755 0.031833686 0.17018919 0.25094292
-0.23646474 -0.20500487 -0.1522578 0.15897846 -0.24355745 0.24650681 -0.05540526 0.120351434
0.12707162 -0.1848374 -0.090825856 -0.0024380088 -0.014410675 0.0887416 0.13685495 0.22690123
0.0884372 -0.16124845 0.24899685 -0.054793835 -0.03805548 -0.17684704 -0.028719366 -0.006477952
-0.17542535 0.06256747 -0.1864574 0.011828363 0.2077071 -0.20252895 -0.1578731 -0.2454316
-0.09325105 0.19270575 -0.24711668 -0.09748912 0.12064642 -0.24595875 -0.11913842 -0.06525856
-0.14749593 -0.03286946 -0.107115984 -0.17003423 -0.21443182 0.23993641 -0.021956503 -0.030161262
0.16009885 0.071629584 -0.12775701 -0.2385984 -0.1580323 -0.040485144 -0.117960334 -0.16001493
-0.07806426 0.003305912 -0.031422973 -0.082407475 0.17705685 0.03668791 0.012863636 -0.097616315

sequential/dense_1/MatMul f4 [3, 32]
00000000: 77ea c8be 877b c23e 11ed 693e 9c88 8cbd
00000010: adb5 9f3e 773c 8dbe 25c4 fcbd 30ad 2f3c
00000020: bcb0 ff3d 7aee 80be 2293 893e e2b5 803d
00000030: eea8 5e3e 9e01 76bd d005 b33e 4d11 50be
00000040: 1242 8f3e 9ae0 12bd b907 353e ffd9 72be
00000050: 328e 8a3e e7d5 bebd 9fa7 24be 6fac c93e
00000060: be63 8d3e f9f7 f93d d852 f2bd c3b9 46be
00000070: 34c5 4fbc 9601 8b3e da80 b6bd 48ab 133e
00000080: 042b 6a3d 92ec ed3d 1dd7 833d c27e b3be
00000090: 6c23 dfbd b331 5abe 0297 383e 23fc 0abe
000000a0: 5ea3 563e 4f6d 753e 533d b13e 6b27 493e
000000b0: a9c4 c4be 900f a53d 268c 35be 6af6 a83e
000000c0: b4e9 a8bd e21f 273d a5b9 6dbe 0a65 b83e
000000d0: f355 bd3e b99f 803e 0dc0 283e 45ef efbd
000000e0: c8e1 11bc 2989 fe3c 4c5a 753e 31d1 a1be
000000f0: 6688 23bd f8dd b63e 1c4b 1f3e 77cf 8dbd
00000100: 07a4 03be 8245 7a3e b339 123e f659 c5be
00000110: 95e3 0f3e 0a9f 66be 4026 a9be 6690 523e
00000120: 9584 163e 804a b23e 63fa a03e b947 433e
00000130: ef5d 88be 508e 75bd cfde 643e e20c 773e
00000140: 1570 003d b62b e63d 4a7e b53e 1d00 91be
00000150: 799e b1be 0d0f 19be 906a 2c3e 20e5 93be
00000160: 20fc acbe 0517 123d 712e 01be 46f8 49be
00000170: 1f83 a5bc 5530 643e 297a 5b3e 7505 7dbd
-0.39241382 0.3798487 0.2284434 -0.06861994 0.31193295 -0.27585194 -0.12342099 0.010722443
0.12484881 -0.25181943 0.26870066 0.062846914 0.21744129 -0.060060136 0.34965372 -0.203191
0.27980095 -0.035858728 0.17678727 -0.23715971 0.2706161 -0.093181424 -0.16079567 0.3938937
0.2761516 0.122055 -0.118322074 -0.194068 -0.012681294 0.27149647 -0.08911295 0.14420807
0.05716993 0.11617388 0.06437514 -0.35057646 -0.10895428 -0.21308021 0.18026355 -0.13572745
0.20960757 0.23967479 0.346171 0.19643943 -0.3843129 0.08059609 -0.17729244 0.330005
-0.082477 0.04080189 -0.23215349 0.36014587 0.36979637 0.2512186 0.16479512 -0.11715559
-0.008903928 0.031071262 0.23960227 -0.31604913 -0.039925 0.35716224 0.15555996 -0.069243364
-0.1285554 0.24440578 0.14279823 -0.38545197 0.1405166 -0.22521606 -0.33036995 0.20562896
0.14699014 0.34822464 0.3144103 0.19070329 -0.26634166 -0.059950173 0.2235062 0.24126008
0.03135689 0.11238806 0.35447913 -0.283204 -0.34691218 -0.14947148 0.16837525 -0.28885746
-0.33786106 0.035666484 -0.12615372 -0.19723615 -0.020204125 0.22284062 0.21433319 -0.061772782

sequential/lstm/while/lstm_cell/BiasAdd/ReadVariableOp f4 [256]
00000000: 0a40 abba 0000 0000 b4d7 6cbb 82fb d7bb
00000010: 196c dbba e2ec d2bb 29b6 283b 5821 a2bb
00000020: f885 2dbb ba2b a63b 0963 8c3a 70c5 a83b
00000030: 574f 98ba a547 96b8 94be 80ba 908c 403c
00000040: be57 6dbb 7c58 50bb 3af2 46bb 5551 26bc
00000050: 1472 f0bb 1034 5b3b 3c06 bd3b 67d8 fd3b
00000060: 5934 8f3c 3137 d5bb ed76 033c caa5 a5bb
00000070: df57 0cba b4d4 383c dab3 d6bb 11ab 683c
00000080: 2e77 46bb 4f6a 453c 5ca7 efbb f00a 463b
00000090: 717a cfba 773b 513b 07d7 0bbc 73a2 a3bb
000000a0: 7cc5 c43b 4f78 943b 646a 8a3c b429 ebbb
000000b0: 81ad 55b7 4f41 45bb 72a6 aa3b 3d5c e33b
000000c0: 2bc1 b23b 4d92 d3ba b035 04bb 5022 23bb
000000d0: 3b87 93bb 111f 64b7 f603 fb3a 7c59 89bb
000000e0: 77c9 4c32 5c44 1cbc 72e3 3fbc 25ee 19bc
000000f0: 00cd 00bc b731 1fba e7ba 0cbc 63dc f13b
00000100: 13de 7f3f 0000 803f 68d1 7e3f 8ffc 7e3f
00000110: 5c9a 7f3f 6794 7e3f 7e55 803f 8a02 7d3f
00000120: 5a35 7f3f ba2f 803f 3e60 7f3f caef 803f
00000130: f93f 7f3f c813 803f 8a62 7f3f a42c 823f
00000140: 6dfb 7e3f f717 803f e6e8 7e3f 064e 7d3f
00000150: edc2 7d3f e47a 803f a8bb 803f 74a5 813f
00000160: 9819 803f d5c8 7e3f afed 7e3f 6559 7f3f
00000170: 7ee4 7e3f ff5a 803f a77a 7e3f 3afa 813f
00000180: 8cb4 7f3f d17c 813f 7c74 7e3f 012b 803f
00000190: 38de 7e3f 6821 813f 241d 7e3f fc81 7e3f
000001a0: c28a 7f3f da42 803f b2cb 813f acf4 7d3f
000001b0: ebff 7f3f 67d2 7f3f 5daa 803f 56a0 803f
000001c0: c0aa 7f3f c54a 803f 7bf8 7e3f 6aee 7e3f
000001d0: f2c9 7e3f 66fe 7f3f c2ab 803f 2480 7e3f
000001e0: 23d2 7f3f 2676 7d3f 8008 7d3f 35e2 7c3f
000001f0: b29e 7e3f 855e 803f 8911 7d3f 828d 803f
00000200: 1910 8a3b 0000 0000 3856 52bb 1b91 f5bb
00000210: 2ed4 4fba 9ab3 7fbb 79b3 c13b 7f6a 3f3b
00000220: 1f59 4ebc fc45 c63a 3c21 8abb d239 213c
00000230: b447 b5ba 7eae 5dbb 818b 96ba 3347 563c
00000240: 4bc9 39b9 a026 bfbb 56c9 42bb 1d40 27bc
00000250: 752c 2dbc f453 1d3b 2535 c73b 0bc3 553b
00000260: a93a 043c 65bf f7bb 2088 b3bb 786c abbb
00000270: 8128 9ebb bf18 953a c5db d2bb e356 543c
00000280: 1a86 3d3a 5dba 2aba ea4f f3bb cfc0 d93b
00000290: 7079 7ebb 4a03 caba 6784 18bc bfdd 82bb
000002a0: af3f be3b ed40 b3ba 5b91 88b8 a287 bdbb
000002b0: b423 f9b8 8ac1 c6ba 7e1e 9c3b a52c ca3a
000002c0: 6f59 2bba ff2e 283b 2a8a bb3b fcbb 45bb
000002d0: aa7a 0fbb 33b4 25bb d1de 023c e1af 75bb
000002e0: 14d7 b33b 2f82 5ebb f7ac e6bb 1d7d 23bc
000002f0: 9bc3 30bc a3b3 adb9 a5e2 17bc c504 a93b
00000300: 77b9 efba 0000 0000 f5eb 8abb 48d6 cbbb
00000310: b23f feba fcaa b9bb ce8b 343b ac3e b1bb
00000320: eb5b 87bb 45e3 3c3b 186d 633a 8aac 3d3b
00000330: bece 8cbb 0e44 363b 6920 48bb 1308 523c
00000340: fd54 65bb 032b 5abb 146e f13a 62f9 26bc
00000350: 89e6 bcbb d44d 033c 4071 bd3b d488 0c3a
00000360: 0d4f 023c 043b f03a 87fe 78bb 1752 88bb
00000370: 25b4 aa3a 8e1b 5c3c 172b 87bb dbe8 553c
00000380: c123 fb39 1f99 693c 7da0 f8bb e791 a93b
00000390: d0f4 cbbb d7ab 163c e876 04bc f498 a4bb
000003a0: 66a4 c83b 8e8c 003c 4546 693c 200a 0bbc
000003b0: df0e cf37 e49f 8fba 470b a93b 52b7 fd3b
000003c0: cf7a 5b3b 939f e43b 6587 a2bb 6196 88bb
000003d0: dceb 97bb b9e2 96b7 ad15 113c 0b2f 8bbb
000003e0: f353 55b0 16e4 96bb b115 46bc c8f8 14bc
000003f0: a8c8 07bb e3a8 1dba 8c66 09bc 9b61 013c
-0.001306535 0.0 -0.0036139311 -0.0065912614 -0.001674059 -0.00643693 0.0025743342 -0.0049478225
-0.0026477557 0.0050711306 0.0010710667 0.0051504895 -0.0011620325 -7.165902e-05 -0.0009822422 0.011752263
-0.0036215628 -0.0031791022 -0.003035678 -0.010151227 -0.007337818 0.003344778 0.0057685655 0.0077467444
0.017481016 -0.0065068235 0.00802396 -0.005055164 -0.000535367 0.011281181 -0.0065522017 0.014200942
-0.003028344 0.012049272 -0.007313652 0.0030218922 -0.0015829337 0.0031926313 -0.008535153 -0.0049937307
0.0060049873 0.0045309435 0.016896434 -0.0071766023 -1.2736186e-05 -0.0030098741 0.00520783 0.006938486
0.0054551563 -0.0016141623 -0.0020173602 -0.0024892278 -0.0045022047 -1.3597092e-05 0.0019150961 -0.0041915756
1.1920171e-08 -0.0095377825 -0.011711942 -0.009395157 -0.007861376 -0.0006072777 -0.008589483 0.0073810085
0.99948233 1.0 0.9953828 0.99604124 0.9984491 0.99445194 1.002609 0.98832
0.99690783 1.0014565 0.9975623 1.0073178 0.9970699 1.0006037 0.99759734 1.0169873
0.99602395 1.0007313 0.99574125 0.9894718 0.9912556 1.0037503 1.0057268 1.0128617
1.000781 0.99525195 0.99581426 0.9974578 0.995674 1.002777 0.994059 1.0154488
0.9988487 1.0116216 0.9939649 1.0013124 0.9955783 1.008832 0.99263215 0.9941709
0.998211 1.0020401 1.0140288 0.99201465 0.99999875 0.99930423 1.0051991 1.0048931
0.9986992 1.0022818 0.995979 0.9958254 0.99526894 0.99997556 1.0052416 0.9941428
0.9993002 0.99008405 0.98841095 0.98782665 0.994609 1.0028845 0.9885488 1.0043185
0.004213345 0.0 -0.0032094847 -0.0074941046 -0.00079280406 -0.0039016963 0.0059112874 0.0029207764
-0.01259449 0.0015127058 -0.0042153876 0.009840446 -0.0013830573 -0.003382593 -0.0011485667 0.013078499
-0.00017717962 -0.005833462 -0.0029722056 -0.010208157 -0.010569681 0.0024006339 0.0060793334 0.0032617475
0.008070626 -0.007560658 -0.005478874 -0.0052314363 -0.004826606 0.0011375173 -0.00643489 0.0129601685
0.00072297605 -0.00065127556 -0.007425298 0.006645299 -0.0038829707 -0.0015412357 -0.009308911 -0.0039937194
0.0058059315 -0.0013675966 -6.51206e-05 -0.005783991 -0.000118798955 -0.001516388 0.004764377 0.0015424682
-0.0006536459 0.0025662777 0.0057232575 -0.0030171862 -0.0021893182 -0.002528441 0.007987694 -0.0037488865
0.005488286 -0.0033952107 -0.007039662 -0.00997856 -0.0107888235 -0.0003313097 -0.009270345 0.0051580393
-0.0018289526 0.0 -0.004239554 -0.0062206127 -0.0019397645 -0.005666135 0.002754915 -0.0054090824
-0.0041308305 0.0028821987 0.0008675619 0.0028941953 -0.0042971065 0.002781156 -0.0030536896 0.012819308
-0.0034993284 -0.0033289797 0.0018419647 -0.010191293 -0.0057647866 0.008014161 0.0057813227 0.0005360965
0.0079534175 0.0018328135 -0.0037993507 -0.0041601765 0.0013023658 0.013434304 -0.0041250098 0.013056005
0.0004790109 0.014257698 -0.007587491 0.0051748636 -0.0062242523 0.009196243 -0.00808499 -0.0050231162
0.0061231134 0.007846011 0.014237945 -0.008486301 2.4683248e-05 -0.0010957685 0.005158815 0.0077428007
0.0033489948 0.0069770305 -0.004959988 -0.004168317 -0.004636271 -1.798697e-05 0.008855266 -0.0042475513
-7.760825e-10 -0.0046048267 -0.012090133 -0.009092517 -0.0020718966 -0.0006014241 -0.0083862655 0.007896806

sequential/lstm/while/lstm_cell/MatMul_11 f4 [256, 64]
00000000: 6bf0 8dbc 6827 93bd 1f42 163d 19a8 30bc
00000010: 43af 013d db9b c73d 677c 893d d40e dbbd
00000020: dbb3 ad3d 4337 0dbb 447b f43c 8548 8bbd
00000030: c460 2c3d 292a 673d d5f3 b53d 81a3 063e
00000040: 41ed 1fbd 0fb6 b83d b847 23bd fccf fe3a
00000050: d724 93bd 388f d5bd b214 8a3d adf4 743d
00000060: 52a0 1e3d d0ff 823d 23c1 51bc 564e bf3d
00000070: e9e5 bc39 61a1 6f3d e761 f53c 80b0 da3d
00000080: 93f1 213d 7d32 0cbe 2728 bfbd a042 7e3c
00000090: 4dd8 fabc 4a52 99bc b5b0 8cbc 1ca8 c8bd
000000a0: 18ea 1c3d 20ea 45bd 3d83 8dbd 590e 97bd
000000b0: bf24 273c 7ff4 85bc d994 f53c 1fae 463d
000000c0: 743c 0abd 0442 b0bd b662 87bd 0c13 6e3d
000000d0: c3b3 9ebd bfb1 6abc d6a1 45bd 6ec3 babd
000000e0: 42e1 8b3d 22e5 e3bb 2f08 993d 85c4 bebd
000000f0: 8f72 22bd 0a82 393d 13e5 aabd 1468 3f3d
00000100: cac3 e3bc 009f 8bbb 912d afbd 580e 8cbd
00000110: bcb7 fa3b 6a65 32bd 1c03 20bd a312 a83d
00000120: caaa cfbc 39d8 833c 52e6 ea3c 0c7b cbbb
00000130: d804 e8bc 36d5 afbd 1a05 c8bc 6ac6 73bd
00000140: e802 0a3d 0424 153a 4edc 243e 819e b8bc
00000150: 4dc7 003e ed19 bf3d d768 e13d 0f4c 333c
00000160: b935 923d 8eb6 293d c425 3ebc 7926 de3d
00000170: 5695 66bd 6c1f 67bd e5ea 87bd f8cc 593c
00000180: 7c51 efbd 2e4f e4ba 3fed 8a3b e812 353c
00000190: e2a8 553b ee4c b63c 23a7 d33c 60fb 65bd
000001a0: ddcf 4cbd a3b8 cbbd 7d6d b6bd 4b28 c73d
000001b0: f55e 20bd f2f9 063e 7029 f9bd 876a 04bd
000001c0: c7dc eabc 7f0b 803c 0e74 f63c 6ea6 85bc
000001d0: 00f9 4fb8 40d8 d33d 9282 e5bd 30ae af3a
000001e0: f760 023d e87c 92bb 7bca 68bd 2eb3 4c3c
000001f0: 857b d9bd ea6f 1a3e 60c9 d83b 53e7 38bd
00000200: 6e31 86bd 2668 d03c 3017 5fbc 27c6 bdbd
00000210: 5fed 9f3d 81fe 023e e061 963c e6cc 5e3c
00000220: 8cb5 f43c ddd8 80bd 0fa4 873d bee4 36be
00000230: 9e6a e83c f7d7 ab3d a2da 1b3d 676a 64bd
00000240: 0fe1 013c d693 ca3c 3c5c 943c 4f30 c5ba
00000250: 864a 1d3d de66 e13c 5341 c63c 64c2 82bd
00000260: e16c b13d 2689 0dbe 63e0 a9bc 69b3 10be
00000270: b406 853d 5e3f 55bd 2e33 973d 6da9 4cbd
00000280: a876 af3d 800a 1c3e fe2d 2dbb 182b debd
00000290: da81 e53d b402 40bc 5ec5 22bc 0a53 30bd
000002a0: f02e 713d b966 cebd dcc0 92bd 0ec8 e8bc
000002b0: 04ba b0bc ed9f df3d 7f8d abbb ce90 69bd
000002c0: 624a 02be e14e c53b c3bf c13d a554 733c
000002d0: 3664 213c a9a1 72bd df55 dbbc ac10 d43c
000002e0: 5872 5bbd 6e12 f5bc 7430 793b e23b 82bc
000002f0: 796b 3e3c dcee e63d 49c6 33bd fe08 e83c
00000300: 6219 45bc 2da3 fd3d fd06 613c 566a 94bd
00000310: 86bc 073d 1810 2e3e 413c 28bd 972d 5f3d
00000320: 2abc 803d c232 04bb 5d8e b73d d83c babc
00000330: 8141 35bc 9055 b4bd e95d e0bd 1e5e c1bc
00000340: fac1 d0bd 4111 4a3b 842d e4bb a87d aebd
00000350: 8fba f2bd 49c4 cdbd c7a5 c8bd a523 653c
00000360: 5abd c23c 7e0e 853d 7d22 fdbd f9f9 333d
00000370: e067 b1bc c080 d3bc b80b bdba b1e7 d4bd
00000380: 61e5 a8bd 23c9 ad3c 8a8b 11ba 803c 9a3d
00000390: 11fb 9a3c de41 673c 331f 483e 071b 733c
000003a0: 82ad 74bd 6dda 10bd 25ac d53c 1453 e6bc
000003b0: ac48 323c 0982 e4bd b185 253d e1dd 2ebc
000003c0: a73c 1c3d ae67 823b 7a07 873c 86e5 76bd
000003d0: 3857 eb3c 35b1 5f3c 03ab 1d3b 12d5 913c
000003e0: 7de5 7a3c 738a ae3d 5190 12bc d75a 523d
000003f0: e129 733c d49a f73b bcc7 d8bc 3084 d53d
-0.017326554 -0.071852505 0.03668415 -0.010782265 0.031661283 0.09746524 0.06713181 -0.106961876
0.0848157 -0.002154783 0.029843934 -0.068009414 0.04208447 0.05643669 0.08884398 0.1314831
-0.039044622 0.090191 -0.03986332 0.0019440646 -0.07184761 -0.104277074 0.067422286 0.059803654
0.038727112 0.063964486 -0.012802395 0.09341113 0.0003602945 0.058503512 0.02995391 0.10678196
0.039537024 -0.13691135 -0.0933383 0.015518814 -0.030620718 -0.018715996 -0.017174104 -0.09797689
0.038309187 -0.048318982 -0.06909797 -0.073757835 0.010201632 -0.016351936 0.029978203 0.0485059
-0.03374906 -0.086063415 -0.066106245 0.058123633 -0.077491306 -0.0143246045 -0.048250042 -0.091193065
0.06830074 -0.006954805 0.07472264 -0.09314827 -0.039660033 0.04529003 -0.08344474 0.046730116
-0.02780332 -0.0042608976 -0.08553613 -0.06838673 0.0076512974 -0.043553747 -0.039065465 0.0820668
-0.025349993 0.016094314 0.028674278 -0.0062097367 -0.028322622 -0.08585589 -0.024416495 -0.059515394
0.033694178 0.00056892657 0.16099665 -0.022536518 0.12576027 0.09331117 0.11006325 0.010943427
0.07139153 0.041433863 -0.011605684 0.10847182 -0.05629476 -0.05642645 -0.066365995 0.013293497
-0.11685464 -0.0017418617 0.0042397077 0.011051871 0.0032601883 0.02225348 0.025836533 -0.056147933
-0.05000292 -0.09947326 -0.08907602 0.09724482 -0.039153058 0.13181284 -0.12166107 -0.032328155
-0.028669728 0.015630482 0.030084636 -0.016314711 -4.9584545e-05 0.10343981 -0.11206545 0.0013403352
0.031830754 -0.0044704564 -0.056833725 0.012493892 -0.106192626 0.15081754 0.0066158026 -0.045142483
-0.06552397 0.025440287 -0.013616368 -0.0926631 0.07808947 0.12792398 0.018357217 0.013598656
0.029871725 -0.062913634 0.066230886 -0.17860696 0.028371152 0.083908014 0.0380503 -0.055765536
0.007927193 0.024728697 0.018110387 -0.0015044304 0.03840115 0.027514871 0.02420107 -0.06384733
0.08663345 -0.13821849 -0.020736879 -0.1413094 0.06495419 -0.052062385 0.073828086 -0.049966265
0.08567554 0.1523838 -0.0026425119 -0.10848063 0.11206408 -0.0117193945 -0.009934751 -0.043047942
0.058882654 -0.100781865 -0.07165691 -0.028415706 -0.021573074 0.10919175 -0.0052353735 -0.057022862
-0.12723687 0.006021366 0.09460404 0.014851724 0.009850552 -0.059236202 -0.026774345 0.025886856
-0.053575844 -0.029916015 0.0038023265 -0.015897695 0.011622303 0.112760276 -0.04389027 0.0283246
-0.0120299775 0.12384639 0.013734576 -0.072468445 0.033138774 0.16998327 -0.041073088 0.054486837
0.062858894 -0.0020171856 0.089627005 -0.02273409 -0.011062981 -0.08805382 -0.10955412 -0.023604449
-0.10193248 0.0030833038 -0.0069634337 -0.08520061 -0.118519895 -0.10047204 -0.097972445 0.013985549
0.02377193 0.06496905 -0.12360094 0.043939564 -0.021655977 -0.025818229 -0.0014423048 -0.10395754
-0.082468756 0.021214074 -0.0005552104 0.07531071 0.018918546 0.014114825 0.19543152 0.014837987
-0.059735782 -0.035364557 0.026083061 -0.028115787 0.010881584 -0.11157615 0.0404107 -0.010673017
0.03814378 0.0039796447 0.016483057 -0.060277484 0.028728113 0.013653089 0.002405823 0.017801795
0.015313503 0.08522501 -0.0089455405 0.051356163 0.014841528 0.0075562987 -0.026462428 0.104256034

sequential/lstm/while/lstm_cell/MatMul f4 [256, 225]
00000000: 20cb c7bd 03b2 de3d 9baf 713d 366e 8cbc
00000010: 29d9 c8bd 25e0 443d 2d85 84bd 06f6 97bc
00000020: a0dd 983d c090 b73d d763 10bb 3be2 9a3c
00000030: 140a cb3d d215 c13d 7ad4 1e3c 7a1f 83bc
00000040: 1667 cfbd 4eeb c9bc fa2b 6abd 7f86 22bd
00000050: 9072 50bd b355 54bd 0512 9cbd 2b5d c43d
00000060: 0200 e53d f2b2 abbd 94c8 f63c c4ac 91bb
00000070: 819a 8cbb 1f3d a63c e74c 6e3d a02b f63c
00000080: 741d b43d f8b3 853d a285 e03d 12c4 1f3c
00000090: 7307 673d 62ca a7bd 95fe b8bd e891 9d3d
000000a0: fa3f 22bd 62bd b43d cdd3 bc3d 846a 9fbd
000000b0: b803 efbb a52e 1a3d b0b7 59bd 5020 b13d
000000c0: 5bf8 bfbd a748 8f3d 00c8 9b3c 03dc d3bd
000000d0: 5ada 613d 1671 68bd bfd6 9fbd 0b61 cb3d
000000e0: fe50 01bd 1d83 bfbd 58cd e3bd 52d0 2c3d
000000f0: 8090 b33d ab6e a4bc efc4 743c 177d 983d
00000100: 7f49 8abd 2983 01bc a2ac e7bd f3cc e93c
00000110: cc20 f93c c795 e0bd a8d2 0c3d 0203 07be
00000120: 6a9d 53bd e282 77bc 49ab 4f3d 1584 70bd
00000130: 983f 34bb 1874 eb3b edb4 7fbb f144 83bd
00000140: 1870 b5bc 5510 c63d 127a 443d 9bff b63d
00000150: e154 723d 5ed3 62bd d7f7 e4bd 5cf6 9bbd
00000160: 16ff cdbd 5e50 773d 4150 95bc 13f9 a6bd
00000170: c43d 81bd 24d2 693d 2fa1 9d3b 35ec 853d
00000180: 7e13 bd3d 46f6 3fbd 4140 8bbd 8a8b 80bd
00000190: 9de9 c73d 745d cc3b 609f b83d dfb4 133c
000001a0: a06a a9bd b08f 5cbd 9853 b3bd a48b d6bd
000001b0: bb43 b2bc bfdf dfbd 7858 b33d d53e 933d
000001c0: 788b 053d ab12 8ebc cc48 6ebd 8851 073b
000001d0: 338a bd3b 4448 083c 3da8 243c 4cee 963d
000001e0: fa59 04bd 433d dabd 9338 43bd 8095 13bd
000001f0: 49ba bebd f516 b3bd 9612 743d 44d4 b0bc
00000200: 40e9 9abd 70cc b33b 11d7 0e3b 6a65 423d
00000210: cced 713d 4074 963d e9ce 5fbc 1ba1 a5bd
00000220: 7b93 a13d d6b2 07bd a401 efbb e972 e8ba
00000230: 0f53 93bd d3b5 3c3d fb82 a53d 2e81 8a3d
00000240: e639 d9bd 2af6 0c3d ce05 ba3d d26f 89bd
00000250: da65 8b3d 93cb 3ebc 435c a73d 8b34 d83d
00000260: c9a8 8f3d 8387 47bd edbd c0bd 619c 6c3d
00000270: d20e d53d 9be6 923d c832 9d3d 9ec9 ae3d
00000280: c057 dabd 92f0 e83b eb80 38bc b4ba 98bd
00000290: c0c0 443b 4dc5 3abd ef04 e5bd d75e 06bd
000002a0: 4f95 cb3d ca18 a53d 98cd b1bc 0671 c2bd
000002b0: 9a56 51bd 1795 b3bd e4f1 513d 9489 95bd
000002c0: 2411 5b3d 4287 d83c d0e4 a53d 984f c6bd
000002d0: f69e a7bd 3edb b13a 623c a8bd 4a96 963d
000002e0: 4aa0 34bc b975 da3d 042d c83d 7f30 863d
000002f0: cf28 483d 61ef 513d 7179 b3bc e24e 483c
00000300: 3c58 cf3c 5f84 fcbb 1e40 773d 604d 6e3d
00000310: f17b 2abc aaf8 7dbd fa4e 82bc 88ce b13c
00000320: 6d62 c3bc fa0a b7bd 8bbf 87bd ad17 8b3d
00000330: 3e88 e2bd 9501 a2bd b82c 1dbd 9c17 bb3d
00000340: 6664 453a 0a0a 18bc 9a26 10bb 8dbf ea3c
00000350: 6062 de3b 6ae2 bdbd e037 f13c da52 a73c
00000360: 07bc 323d 98a7 aabc c4ef 97bd a0a4 933d
00000370: f63c 4f3d 8308 aabc 248b 253b 6d4e a43d
00000380: ad57 453d 08f4 efbc 3866 29bc 60d6 0dbc
00000390: 268b 143d 864e bfbd 1a7f 723d 56b7 2c3d
000003a0: 345c c03c cf7b ce3d ef2b 943d 14f8 e13c
000003b0: 0d19 8f3d 0594 e1bd 8e96 503d 649c 26bd
000003c0: a29c 4fbd eb1e d33d 603a 1dbc ae2c cdbd
000003d0: 9c06 9cbc 2dae a93d df94 b13d 3825 13bd
000003e0: 4fb0 65bd 238b c83d 7c3d ff3c 0c1c b2bc
000003f0: aa1c 423d 80f1 7d3b a9a3 ca3d 8463 cebd
-0.0975554 0.10873797 0.05900536 -0.017142396 -0.09807045 0.048065323 -0.06470714 -0.01854993
0.074641466 0.08963156 -0.0022032165 0.018906703 0.099140316 0.0942799 0.009694213 -0.01600622
-0.10127084 -0.024648335 -0.057170846 -0.039679047 -0.050890505 -0.05183954 -0.076206245 0.09588083
0.11181642 -0.083837405 0.03012494 -0.004445644 -0.0042908792 0.020292817 0.05817881 0.030050099
0.0879468 0.06528467 0.109629884 0.009751337 0.05640359 -0.08192898 -0.09032933 0.07693845
-0.039611794 0.088251844 0.09220085 -0.07783988 -0.0072941445 0.03764214 -0.053153694 0.08648741
-0.09373542 0.06996279 0.019016266 -0.10344698 0.055139877 -0.056748472 -0.078046314 0.09930619
-0.03157138 -0.0935118 -0.111231506 0.042190857 0.087677956 -0.020072302 0.014939531 0.07445734
-0.067522995 -0.007904806 -0.11312224 0.02854011 0.030411147 -0.10966068 0.034380585 -0.13184741
-0.051663794 -0.0151068885 0.05070046 -0.058719713 -0.0027503725 0.0071854703 -0.0039017752 -0.06409634
-0.022148177 0.09671084 0.047967978 0.089354716 0.059162978 -0.055377357 -0.11180084 -0.07615349
-0.100584194 0.06037938 -0.018226745 -0.08152976 -0.06310609 0.05708517 0.0048104743 0.065391935
0.092322335 -0.046865724 -0.06799365 -0.06276615 0.09761355 0.0062367264 0.09014773 0.009015291
-0.0827229 -0.05384797 -0.087561786 -0.10475853 -0.021760812 -0.10931348 0.087571084 0.07189719
0.03260371 -0.017342886 -0.058174893 0.0020647962 0.005784297 0.008318011 0.010049877 0.0736967
-0.03231237 -0.10656216 -0.047661375 -0.036031246 -0.09312875 -0.08744613 0.059588037 -0.021585591
-0.0756402 0.0054870173 0.002179567 0.047459997 0.05906467 0.07346392 -0.013660171 -0.08087369
0.07889458 -0.033129536 -0.0072938967 -0.0017734441 -0.071935765 0.04607184 0.08081623 0.0676292
-0.106067464 0.034414448 0.090831384 -0.06710781 0.06806536 -0.011645216 0.081718944 0.10556897
0.07014615 -0.04871322 -0.094112255 0.057766322 0.104032174 0.07172891 0.076757014 0.08534549
-0.10661268 0.0071087563 -0.011261205 -0.07457486 0.0030022115 -0.045598317 -0.11182582 -0.03280529
0.09940588 0.08061369 -0.02170448 -0.09494214 -0.05110798 -0.08768671 0.051256076 -0.073016316
0.053483143 0.026431683 0.08100283 -0.0968315 -0.08184616 0.0013569368 -0.08214642 0.07352884
-0.011024544 0.10666985 0.09774211 0.06552219 0.048867043 0.05125368 -0.021908494 0.012225838
0.025310628 -0.0077062096 0.06036388 0.05817926 -0.0104055265 -0.062004723 -0.0159068 0.021704927
-0.023850644 -0.089376405 -0.06628331 0.06791625 -0.110611424 -0.07910458 -0.038372725 0.091353625
0.0007529914 -0.009279737 -0.0021995665 0.028655792 0.0067866296 -0.09271701 0.029445589 0.020425249
0.043636348 -0.020831868 -0.074187785 0.07209134 0.050595246 -0.020756012 0.0025259936 0.08022771
0.048179317 -0.029291168 -0.010339312 -0.008657068 0.036265515 -0.09341149 0.059203245 0.04216703
0.023481466 0.10082208 0.07234942 0.027584113 0.069872 -0.110145606 0.05092483 -0.04067649
-0.050686486 0.103086315 -0.009596437 -0.100182876 -0.01904612 0.082851745 0.08670973 -0.035924166
-0.056076344 0.09792163 0.031157248 -0.02174189 0.047390617 0.0038748682 0.09894497 -0.10077575
